…
k to be able to use it for predictions and inference."
  },
  {
    "objectID": "notebooks/training_eval_loop.html#training-loop",
    "href": "notebooks/training_eval_loop.html#training-loop",
    "title": "Training and Evaluation Loop",
    "section": "Training loop",
    "text": "Training loop\n\nimport torch\nfrom tqdm.auto import tqdm\n\n\ndevice = torch.device('cuda') if torch.cuda.is_available() else torch.device('cpu')\ndevice\n\ndevice(type='cuda')\n\n\n\nmodel.to(device)\n\nBertForSequenceClassification(\n  (bert): BertModel(\n    (embeddings): BertEmbeddings(\n      (word_embeddings): Embedding(30522, 768, padding_idx=0)\n      (position_embeddings): Embedding(512, 768)\n      (token_type_embeddings): Embedding(2, 768)\n      (LayerNorm): LayerNorm((768,), eps=1e-12, elementwise_affine=True)\n      (dropout): Dropout(p=0.1, inplace=False)\n    )\n    (encoder): BertEncoder(\n      (layer): ModuleList(\n        (0-11): 12 x BertLayer(\n          (attention): BertAttention(\n            (self): BertSelfAttention(\n              (query): Linear(in_features=768, out_features=768, bias=True)\n              (key): Linear(in_features=768, out_features=768, bias=True)\n              (value): Linear(in_features=768, out_features=768, bias=True)\n              (dropout): Dropout(p=0.1, inplace=False)\n            )\n            (output): BertSelfOutput(\n              (dense): Linear(in_features=768, out_features=768, bias=True)\n              (LayerNorm): LayerNorm((768,), eps=1e-12, elementwise_affine=True)\n              (dropout): Dropout(p=0.1, inplace=False)\n            )\n          )\n          (intermediate): BertIntermediate(\n            (dense): Linear(in_features=768, out_features=3072, bias=True)\n            (intermediate_act_fn): GELUActivation()\n          )\n          (output): BertOutput(\n            (dense): Linear(in_features=3072, out_features=768, bias=True)\n            (LayerNorm): LayerNorm((768,), eps=1e-12, elementwise_affine=True)\n            (dropout): Dropout(p=0.1, inplace=False)\n          )\n        )\n      )\n    )\n    (pooler): BertPooler(\n      (dense): Linear(in_features=768, out_features=768, bias=True)\n      (activation): Tanh()\n    )\n  )\n  (dropout): Dropout(p=0.1, inplace=False)\n  (classifier): Linear(in_features=768, out_features=2, bias=True)\n)\n\n\n\n# use `tqdm` to add a progress bar\nprogress_bar = tqdm(range(training_steps))\nmodel.train()\n\nfor epoch in range(epochs):\n    for batch in train_dataloader:\n        batch = {k: v.to(device) for k, v in batch.items()}\n        outputs = model(**batch)\n        \n        loss = outputs.loss\n        loss.backward()\n        optimizer.step()\n        lr_scheduler.step()\n        optimizer.zero_grad()\n        \n        progress_bar.update(1)"
…
